projects/aries-fl/notebooks/researcher/part_trained_1.pt (torch, 3493 bytes, 5 tensors)

weight f4 [4, 8]
0	0xbbe86556	-0.0070921583
1	0x3f701bd1	0.93792444
2	0xbe1edeb4	-0.15514642
3	0x3f88818b	1.0664533
4	0x3df17266	0.11789398
5	0x3f07848b	0.5293662
6	0xbf18e0c3	-0.5971796
7	0xc05a6616	-3.4124808
8	0xbed03c22	-0.40670878
9	0xc0036a22	-2.0533528
10	0x3fda9f82	1.7079928
11	0xbfd708cd	-1.6799561
12	0x3ec2c919	0.3804405
13	0x40110fbf	2.266586
14	0xbeecab86	-0.46224612
15	0x3f608b7e	0.8771285
16	0x3f67ca02	0.90542614
17	0xbf9e1d69	-1.2352725
18	0x3ed15d58	0.40891528
19	0x40563d92	3.347508
20	0x3d601fe7	0.054717924
21	0xbfca84ba	-1.5821755
22	0x3edd60ff	0.43238065
23	0xbfdac2d0	-1.7090702
24	0x3d61f035	0.05516072
25	0x3dfc0bb1	0.123069175
26	0xbd528e4c	-0.051405236
27	0x3fa1294e	1.259073
28	0x3ec5a363	0.38601217
29	0xbf50733f	-0.8142585
30	0xbfba9c08	-1.4578867
31	0x405c4a96	3.4420524

bias f4 [4]
0	0x3fe64cff	1.7992247
1	0xc03552e6	-2.8331847
2	0xbf641012	-0.8908702
3	0xbf95a700	-1.1691589

weight f4 [2, 4]
0	0xc05e84be	-3.476852
1	0x4028c862	2.6372304
2	0x4015f1de	2.3428874
3	0x40156e38	2.3348522
4	0x401a157b	2.407561
5	0xc0062fd1	-2.0966685
6	0xbfd3937d	-1.6529385
7	0xbfbf5bfd	-1.4949948

bias f4 [2]
0	0xc02e7fee	-2.7265582
1	0x3fe341bb	1.7754434

weight f4 [1, 2]
0	0x40d9a464	6.801317
1	0xc090c33a	-4.5238314
