projects/aries-fl/notebooks/researcher/part_trained_1.pt (torch, 3493 bytes, 5 tensors)

weight f4 [4, 8]
0.9598069 1.1691128 0.44777888 0.43036687 -0.9583991 -1.1089904 0.92242837 -1.4144717
0.23671001 1.070526 -0.4386433 0.15204352 -0.29568097 0.22503613 -0.069237575 -4.0364585
0.6670218 -1.2040917 0.88560045 2.6508172 1.3103545 -1.1291289 -0.60285753 -0.36474332
1.1412168 1.4918492 -0.5766905 2.3912494 -0.00992224 -2.1220202 0.4981785 -0.9994527
00000000: e8b5 753f 7da5 953f 4643 e53e 0c59 dc3e
00000010: a559 75bf 66f3 8dbf 4424 6c3f 690d b5bf
00000020: 1c64 723e ff06 893f db95 e0be 4cb1 1b3e
00000030: 7f63 97be df6f 663e 6ecc 8dbd ab2a 81c0
00000040: f1c1 2a3f ad1f 9abf b6b6 623f fda6 2940
00000050: b2b9 a73f 4c87 90bf df54 1abf a3bf babe
00000060: 6413 923f eaf4 be3f fda1 13bf 3b0a 1940
00000070: e490 22bc 2ecf 07c0 4111 ff3e 22dc 7fbf

bias f4 [4]
0.88643736 3.345083 -1.1282192 0.52341104
00000000: 8fed 623f d715 5640 7d69 90bf 44fe 053f

weight f4 [2, 4]
-1.5552958 3.4881134 -2.031822 1.9623613 2.5857553 -4.443263 2.6078153 -3.422538
00000000: ef13 c7bf 403d 5f40 5f09 02c0 a82e fb3f
00000010: 047d 2540 362f 8ec0 72e6 2640 dd0a 5bc0

bias f4 [2]
-0.09153621 0.5749927
00000000: 5677 bbbd b932 133f

weight f4 [1, 2]
-4.8934474 7.2462564
00000000: 1f97 9cc0 55e1 e740
