projects/aries-fl/notebooks/researcher/part_trained_1.pt (torch, 3493 bytes, 5 tensors)

weight f4 [4, 8]
-1.0670155 0.9521649 -0.46763515 0.74299717 -0.767596 1.7692732 -0.23501424 -2.1582053
0.48115882 0.5857427 -0.11373681 0.12571833 0.41895244 -0.17009163 0.0613096 -3.856332
-0.8840973 1.1076976 -0.2835487 -3.4033017 0.092338726 1.5477555 -0.45258704 1.7085034
-0.9218763 -1.589979 1.2103102 -1.4248236 0.40294507 1.8195211 -0.43750086 0.63156044
00000000: f793 88bf 14c1 733f e06d efbe 1035 3e3f
00000010: 2c81 44bf 8b77 e23f 93a7 70be 0920 0ac0
00000020: 735a f63e 3cf3 153f d8ee e8bd 4ebc 003e
00000030: ef80 d63e 802c 2ebe c61f 7b3d 25ce 76c0
00000040: 3354 62bf 09c9 8d3f 4c2d 91be b2cf 59c0
00000050: 161c bd3d da1c c63f 7db9 e7be 3db0 da3f
00000060: 1600 6cbf 6f84 cbbf 72eb 9a3f 9f60 b6bf
00000070: d14e ce3e 11e6 e83f 1d00 e0be f2ad 213f

bias f4 [4]
0.036335718 2.913365 0.874095 -1.5766059
00000000: c3d4 143d 9274 3a40 b1c4 5f3f 39ce c9bf

weight f4 [2, 4]
1.6545905 2.3338134 1.3745619 -1.6409873 -1.7086221 -4.118128 -2.8417826 2.8588996
00000000: 9fc9 d33f 335d 1540 a5f1 af3f df0b d2bf
00000010: 21b4 dabf b4c7 83c0 c4df 35c0 36f8 3640

bias f4 [2]
-1.1740056 1.5806276
00000000: d145 96bf 0152 ca3f

weight f4 [1, 2]
-3.971758 7.002195
00000000: 4831 7ec0 fb11 e040
