projects/aries-fl/notebooks/researcher/part_trained_2.pt (torch, 3493 bytes, 5 tensors)

weight f4 [4, 8]
00000000: 5b85 0140 d40c 4940 a9fa 683f 6648 1940
00000010: 8617 2fc0 6c4c 09c0 b790 4e3f 421b febf
00000020: 4d36 893f bcae 733d 3ff3 8f3e 2d65 083f
00000030: 49c0 c8bd 94dd 8ebb d1e1 8ebe 980d 97c0
00000040: 33e5 ed3f 7b49 813e bacd c13f 476b d73e
00000050: c0d9 a13f f6d8 8bbf 7c54 d9be 628a 8dbe
00000060: e601 9a3f 9567 2b40 6d8a a73e ab5c 953f
00000070: d176 2b3f 7888 4dc0 0aff 4a3c f025 c3bf
2.0237644 3.141408 0.9100748 2.3950438 -2.7358108 -2.1452894 0.8068957 -1.9852068
1.0719696 0.05949281 0.2811527 0.5327938 -0.098023005 -0.0043599103 -0.2790666 -4.7204094
1.8585571 0.25251374 1.5140908 0.42074034 1.2644577 -1.0925586 -0.4244727 -0.2764464
1.2031829 2.6781971 0.32722798 1.1668905 0.66978174 -3.2114544 0.012389908 -1.5245953

bias f4 [4]
00000000: f242 48bd 0415 5c40 5f9d a3bf 8279 ea3f
-0.04889197 3.4387827 -1.2782401 1.8318331

weight f4 [2, 4]
00000000: f141 9dbf 3f94 6640 f4fc 5cc0 ca74 1240
00000010: b425 4040 95a5 a4c0 859e 8f40 cf0d 51c0
-1.2285749 3.6027982 -3.452939 2.2883782 3.0023012 -5.1452127 4.4881005 -3.2664678

bias f4 [2]
00000000: 3210 f43d e5af 943d
0.119171515 0.07260112

weight f4 [1, 2]
00000000: 3fea c2c0 c0d5 f040
-6.0910945 7.5260925
