projects/aries-fl/notebooks/researcher/part_trained_2.pt (torch, 3493 bytes, 5 tensors)

weight f4 [4, 8]
1.541702 1.3173162 -1.3509388 0.9864238 -0.55608404 1.1195848 -2.8485951 -4.505099
-0.74495256 0.120501734 -0.04487349 0.16573218 0.49473596 0.6047559 0.2700426 1.3770196
1.4228424 -1.4424095 -0.35304517 -1.7865647 1.1634527 0.53110045 0.6658763 -4.0319843
3.5444062 -1.223318 3.7328215 0.69750196 0.6724973 0.5994393 -0.38472524 -0.45275572
00000000: 7e56 c53f d19d a83f 90eb acbf 4586 7c3f
00000010: 865b 0ebf 8e4e 8f3f 624f 36c0 c529 90c0
00000020: 36b5 3ebf 9dc9 f63d 44cd 37bd b2b5 293e
00000030: 084e fd3e 48d1 1a3f 0643 8a3e 2e42 b03f
00000040: b31f b63f e0a0 b8bf 56c2 b4be 27ae e4bf
00000050: 05ec 943f 33f6 073f df76 2a3f 0406 81c0
00000060: 8dd7 6240 af95 9cbf 8ce6 6e40 7d8f 323f
00000070: c828 2c3f db74 193f b5fa c4be 99cf e7be

bias f4 [4]
0.40926427 -1.6197537 3.3225036 -1.3760592
00000000: 168b d13e 1754 cfbf e6a3 5440 b522 b0bf

weight f4 [2, 4]
4.542573 -1.7580783 4.8260427 -3.4539845 -1.3138486 0.8498677 -1.8563485 0.011516543
00000000: c25c 9140 b608 e1bf f16e 9a40 150e 5dc0
00000010: 312c a8bf ee90 593f d49c edbf e2af 3c3c

bias f4 [2]
1.6399866 -0.07956395
00000000: 15eb d13f 6df2 a2bd

weight f4 [1, 2]
-7.771872 2.5821607
00000000: 2db3 f8c0 1f42 2540
